Boost_net.pt (torch, 773052 bytes, 198 tensors)

weight f4 [189]
000000 b1 f4 7f 3f 39 f4 7f 3f fc 05 80 3f 81 fa 7f 3f
       0.99982744 0.9998203 1.0001826 0.99991614
000010 cb f7 7f 3f a0 05 80 3f 49 f8 7f 3f 7d 06 80 3f
       0.9998748 1.0001717 0.9998823 1.000198
000020 9a fc 7f 3f 68 06 80 3f 6d 01 80 3f 71 fc 7f 3f
       0.99994814 1.0001955 1.0000435 0.9999457
000030 0a f3 7f 3f 18 f3 7f 3f 31 02 80 3f 70 fb 7f 3f
       0.99980223 0.99980307 1.0000669 0.9999304
000040 98 fb 7f 3f 79 f9 7f 3f f0 f4 7f 3f a2 04 80 3f
       0.99993277 0.9999004 0.9998312 1.0001414
000050 58 01 80 3f 12 06 80 3f 71 06 80 3f f9 f2 7f 3f
       1.000041 1.0001853 1.0001966 0.9998012
000060 e6 05 80 3f e5 00 80 3f 73 f3 7f 3f 37 02 80 3f
       1.00018 1.0000273 0.9998085 1.0000676
000070 e5 f5 7f 3f 04 f3 7f 3f 47 03 80 3f eb 02 80 3f
       0.9998458 0.9998019 1.0001 1.000089
000080 17 f4 7f 3f 53 06 80 3f f2 f3 7f 3f df 00 80 3f
       0.99981827 1.000193 0.99981606 1.0000266
000090 e2 f2 7f 3f 7e 06 80 3f 08 f3 7f 3f cb 01 80 3f
       0.99979985 1.0001981 0.9998021 1.0000547
0000a0 6a 06 80 3f 5b 06 80 3f 9a 05 80 3f eb f2 7f 3f
       1.0001957 1.000194 1.000171 0.9998004
0000b0 84 05 80 3f 8e 06 80 3f 9a f6 7f 3f 85 f5 7f 3f
       1.0001683 1.0002 0.9998566 0.9998401
0000c0 a8 05 80 3f e5 f2 7f 3f 4a f4 7f 3f 77 06 80 3f
       1.0001726 0.9998 0.9998213 1.0001973
0000d0 53 02 80 3f 8e 06 80 3f df 04 80 3f ac 04 80 3f
       1.0000709 1.0002 1.0001487 1.0001426
0000e0 a0 04 80 3f 98 02 80 3f 8e 06 80 3f e4 00 80 3f
       1.0001411 1.0000792 1.0002 1.0000272
0000f0 72 06 80 3f b6 f7 7f 3f 35 06 80 3f 7e 01 80 3f
       1.0001967 0.9998735 1.0001894 1.0000455
000100 0e 06 80 3f d2 00 80 3f 13 fb 7f 3f b2 fa 7f 3f
       1.0001848 1.000025 0.99992484 0.99991906
000110 80 06 80 3f 57 f4 7f 3f f9 f2 7f 3f 5b 06 80 3f
       1.0001984 0.9998221 0.9998012 1.000194
000120 8a 03 80 3f 74 04 80 3f cb 05 80 3f 49 05 80 3f
       1.000108 1.0001359 1.0001768 1.0001613
000130 38 05 80 3f f0 05 80 3f d3 04 80 3f 8a 06 80 3f
       1.0001593 1.0001812 1.0001472 1.0001996
000140 1d 01 80 3f 88 f3 7f 3f 7a 06 80 3f 42 02 80 3f
       1.000034 0.99980974 1.0001976 1.0000689
000150 1f f3 7f 3f 88 06 80 3f e8 00 80 3f 9e 05 80 3f
       0.9998035 1.0001993 1.0000277 1.0001714
000160 c0 05 80 3f 47 f4 7f 3f 8d 06 80 3f 21 f4 7f 3f
       1.0001755 0.9998211 1.0001999 0.99981886
000170 59 04 80 3f 5f 04 80 3f 0f f4 7f 3f 6b 01 80 3f
       1.0001327 1.0001334 0.9998178 1.0000433
000180 69 f9 7f 3f 7d 06 80 3f 94 f3 7f 3f 0d fe 7f 3f
       0.99989945 1.000198 0.99981046 0.99997026
000190 51 06 80 3f 90 05 80 3f e9 f4 7f 3f 49 06 80 3f
       1.0001928 1.0001698 0.9998308 1.0001918
0001a0 36 f4 7f 3f 9a f3 7f 3f 5d 05 80 3f 59 02 80 3f
       0.9998201 0.9998108 1.0001637 1.0000716
0001b0 7f f9 7f 3f 9c 01 80 3f 09 f3 7f 3f 81 06 80 3f
       0.99990076 1.0000491 0.9998022 1.0001985
0001c0 d2 01 80 3f 95 f7 7f 3f 83 06 80 3f 49 fc 7f 3f
       1.0000556 0.99987155 1.0001987 0.9999433
0001d0 e9 f2 7f 3f bd 05 80 3f 12 f5 7f 3f 51 f3 7f 3f
       0.99980026 1.0001751 0.9998332 0.99980646
0001e0 7e f8 7f 3f 13 06 80 3f 43 f4 7f 3f 8c 06 80 3f
       0.99988544 1.0001854 0.9998209 1.0001998
0001f0 e5 fd 7f 3f ac fb 7f 3f cc 05 80 3f 74 05 80 3f
       0.9999679 0.99993396 1.0001769 1.0001664
000200 8c f4 7f 3f 7c 06 80 3f 21 f5 7f 3f 72 fa 7f 3f
       0.99982524 1.0001979 0.9998341 0.99991524
000210 25 fa 7f 3f 40 06 80 3f 85 f8 7f 3f 43 02 80 3f
       0.99991065 1.0001907 0.99988586 1.000069
000220 e9 f2 7f 3f 73 02 80 3f 2d 04 80 3f 52 06 80 3f
       0.99980026 1.0000747 1.0001274 1.0001929
000230 e0 04 80 3f 65 f8 7f 3f f6 f3 7f 3f 7b f4 7f 3f
       1.0001488 0.99988395 0.9998163 0.9998242
000240 51 04 80 3f 3c f8 7f 3f ca 05 80 3f 7e 04 80 3f
       1.0001317 0.9998815 1.0001767 1.0001371
000250 5d f3 7f 3f bc f8 7f 3f 2c fb 7f 3f e3 f2 7f 3f
       0.9998072 0.99988914 0.9999263 0.9997999
000260 ec f2 7f 3f 24 06 80 3f 80 01 80 3f 85 fd 7f 3f
       0.99980044 1.0001874 1.0000458 0.99996215
000270 b8 fa 7f 3f fa 00 80 3f 17 f9 7f 3f 19 04 80 3f
       0.9999194 1.0000298 0.99989456 1.000125
000280 63 01 80 3f d5 f7 7f 3f 48 f6 7f 3f 53 02 80 3f
       1.0000423 0.99987537 0.9998517 1.0000709
000290 78 06 80 3f 58 fe 7f 3f db fd 7f 3f ce 05 80 3f
       1.0001974 0.9999747 0.9999673 1.0001771
0002a0 d4 f3 7f 3f ed f2 7f 3f 36 f4 7f 3f 8e 06 80 3f
       0.9998143 0.9998005 0.9998201 1.0002
0002b0 a4 f5 7f 3f d4 02 80 3f 6c f7 7f 3f 8e 06 80 3f
       0.9998419 1.0000863 0.9998691 1.0002
0002c0 84 06 80 3f 3b 06 80 3f 03 f3 7f 3f 86 f4 7f 3f
       1.0001988 1.0001901 0.9998018 0.9998249
0002d0 0b f4 7f 3f 31 f4 7f 3f 20 03 80 3f d4 f3 7f 3f
       0.99981755 0.9998198 1.0000954 0.9998143
0002e0 99 f9 7f 3f 60 f6 7f 3f 1f fa 7f 3f 90 01 80 3f
       0.9999023 0.99985313 0.9999103 1.0000477
0002f0 de 04 80 3f
       1.0001485

bias f4 [189]
000000 e4 eb b8 b8 21 06 dd 38 01 5a 51 39 be 99 50 b9
       -8.817742e-05 0.00010539243 0.00019965322 -0.00019893699
000010 4c d2 31 b9 9e 30 34 39 10 c7 9c 38 ea 99 f1 b8
       -0.00016958377 0.00017184249 7.475738e-05 -0.00011520444
000020 a9 7c 41 38 d0 f8 cc b8 0a ff 50 b9 de 7e fd 38
       4.6130885e-05 -9.773823e-05 -0.00019931435 0.00012087611
000030 db 0e 14 39 04 24 09 39 09 aa 12 39 e1 ee d8 38
       0.00014119914 0.00013078755 0.00013986988 0.00010344177
000040 d6 2b 42 b9 92 27 0c b9 30 f0 08 38 3e 42 4e b9
       -0.00018517612 -0.00013366182 3.264862e-05 -0.00019670368
000050 1a 79 50 39 68 92 3a b9 80 97 f4 37 bc 97 11 b8
       0.0001988154 -0.00017792883 2.9157614e-05 -3.4712008e-05
000060 48 e1 f1 b7 e5 c1 c6 b8 96 c5 df 38 e0 bf e9 38
       -2.8834344e-05 -9.4774914e-05 0.00010670272 0.00011146045
000070 fe f3 4c 39 a5 dc ca b8 f0 c7 51 b9 c0 e3 4b 39
       0.0001954585 -9.673209e-05 -0.00020006276 0.00019444432
000080 3a 03 4d 39 74 1e 3a 39 ea 32 26 39 75 67 51 39
       0.00019551525 0.00017749687 0.0001584996 0.00019970334
000090 d3 64 4b b9 c6 bc 4f b9 70 3a 42 b8 92 a3 64 b8
       -0.00019397149 -0.00019811382 -4.630763e-05 -5.4511773e-05
0000a0 20 16 cc 38 73 37 c2 38 0a 3c 48 39 ec 85 8f 38
       9.731599e-05 9.260969e-05 0.00019095853 6.843716e-05
0000b0 b2 33 45 39 93 48 47 39 d5 fd d6 38 38 89 04 b9
       0.00018806642 0.00019005155 0.00010251595 -0.00012639619
0000c0 52 12 4b b9 b6 b3 46 b9 82 85 4e b9 dc cc 46 b9
       -0.00019366413 -0.00018949699 -0.00019695426 -0.00018959068
0000d0 32 0a 21 b9 b2 4c 66 38 d2 17 3a 39 0a 74 47 b9
       -0.00015357955 5.49077e-05 0.00017747216 -0.00019021347
0000e0 7c e6 10 b9 72 5c 3c b9 a4 d2 46 b9 ce 3f 48 b9
       -0.00013818772 -0.00017963516 -0.00018961221 -0.00019097255
0000f0 4f c4 4e 39 86 e1 04 38 e0 37 17 b8 9a bb 50 39
       0.00019718822 3.1681288e-05 -3.6053243e-05 0.00019906313
000100 b0 72 23 38 2c 57 41 b9 50 b2 1b b9 49 da 23 b9
       3.896904e-05 -0.00018438388 -0.00014848378 -0.00015626209
000110 5c d6 51 39 26 5c 4e b9 b0 72 3f 39 3d 6f 3c b9
       0.00020011648 -0.00019680019 0.00018257904 -0.00017970517
000120 3c fa 23 b9 e8 c6 51 39 0a 34 3c b9 8a 0c fe b8
       -0.00015638111 0.00020005892 -0.00017948463 -0.000121139994
000130 06 81 51 39 4d dd 10 b9 66 d1 51 b9 72 5f 51 39
       0.00019979858 -0.00013815351 -0.000200098 0.0001996735
000140 3c cd 3e b9 38 78 51 b9 46 d0 1e 39 e9 af a9 38
       -0.00018196268 -0.00019976578 0.00015145642 8.091314e-05
000150 3e 6d dd b8 74 5d 16 39 f4 d3 4e b9 05 d1 4e b9
       -0.00010558449 0.00014339929 -0.0001972465 -0.00019723557
000160 e0 c8 48 39 ec 0c 46 39 1c 3a 42 39 ea 75 3e 39
       0.00019148318 0.00018887565 0.00018522929 0.00018163738
000170 c8 1b 47 b9 c2 d7 51 b9 96 d2 51 39 a1 d4 51 39
       -0.00018988468 -0.00020012169 0.00020010243 0.00020011004
000180 a4 84 bb b8 e8 4e b0 b8 78 87 1b 39 e4 7e 44 b9
       -8.941561e-05 -8.4070314e-05 0.00014832418 -0.00018739287
000190 c2 19 0d 39 62 24 37 39 72 7d 68 b8 30 8a ce 38
       0.00013456403 0.00017465794 -5.542994e-05 9.848585e-05
0001a0 db 90 45 39 f6 51 51 b9 d6 c8 4a 39 51 79 f1 b8
       0.00018841347 -0.00019962326 0.00019339038 -0.000115143725
0001b0 5a 16 43 b9 76 e0 7c b8 b3 71 88 38 fa 9e ec 38
       -0.00018604976 -6.0290527e-05 6.5061635e-05 0.000112829686
0001c0 10 0a 2d 39 70 0c 51 b9 2e 92 4c 39 65 8f 2d b9
       0.00016502314 -0.00019936427 0.00019509412 -0.00016551984
0001d0 fa a3 1c b9 0d 16 45 b9 da 96 47 39 ca 1c 51 b9
       -0.00014938405 -0.00018795599 0.00019034315 -0.00019942518
0001e0 9e 0e 3b b9 5c f2 eb b7 b4 e6 10 b9 1b b0 b7 38
       -0.00017839155 -2.812704e-05 -0.00013818854 8.758922e-05
0001f0 e4 e0 38 39 96 6b 2b b9 4e 80 27 39 06 f0 4e b9
       0.00017631386 -0.0001634791 0.00015974158 -0.00019735107
000200 5b e7 4d b9 0e b3 4e 39 c0 43 00 39 39 fa 35 b9
       -0.0001963651 0.00019712394 0.0001223227 -0.0001735472
000210 ae 2b 90 b8 a5 78 1b 39 34 55 38 b9 dc c4 3f b8
       -6.874591e-05 0.00014826895 -0.00017579348 -4.572129e-05
000220 33 17 c7 38 00 7c 6f 38 fc 20 45 b9 a4 ed 4c 39
       9.493381e-05 5.7097524e-05 -0.00018799672 0.00019543484
000230 de 4f 06 38 90 68 ea b8 fa c5 3d b9 70 88 36 39
       3.202247e-05 -0.00011177466 -0.00018098197 0.000174077
000240 4e ba 18 39 58 bb 41 b9 aa 55 51 39 2e 62 2b b9
       0.00014565254 -0.00018475705 0.00019963706 -0.00016344406
000250 6c 7c d4 38 aa ee 04 38 00 04 8a b8 d6 38 b4 b8
       0.00010132123 3.1693526e-05 -6.581098e-05 -8.5936554e-05
000260 92 32 4c 39 cf af 4d b9 d4 17 50 39 de 35 c1 b8
       0.00019473795 -0.00019615817 0.00019845302 -9.212991e-05
000270 f8 57 4b b9 b8 db 07 39 93 b9 49 b9 f4 33 4f 39
       -0.0001939236 0.00012956455 -0.00019237986 0.00019760412
000280 74 27 49 b9 d8 df 9f b8 c4 b6 f5 b8 92 e4 3a 39
       -0.00019183551 -7.623405e-05 -0.00011716553 0.00017823491
000290 18 61 2a 39 79 c0 be b8 10 1b c7 38 a6 a5 3d b9
       0.00016248634 -9.095757e-05 9.4941e-05 -0.00018086153
0002a0 c2 ec 21 b9 f2 d7 cf 38 a7 f9 e3 38 6a dd fc 38
       -0.00015442356 9.910752e-05 0.00010870705 0.00012057538
0002b0 20 8c c8 b8 40 36 06 b9 7b 46 f2 38 84 c4 3d 39
       -9.5628435e-05 -0.00012799446 0.00011552587 0.00018097652
0002c0 10 aa d7 b8 5d 50 36 b9 a3 e8 4e b9 4d 3b 23 39
       -0.000102836755 -0.0001738681 -0.00019732355 0.00015566983
0002d0 30 26 50 b9 30 47 1f b9 ee 95 06 39 36 38 4c 39
       -0.00019850652 -0.00015189941 0.00012835089 0.00019475896
0002e0 1b c9 4d b9 94 37 44 39 d2 10 4e b9 f8 3d bd b7
       -0.00019625241 0.00018712721 -0.00019651957 -2.2559412e-05
0002f0 7a 19 30 b9
       -0.00016794159

running_mean f4 [189]
000000 87 6a ce 3c 9a 02 23 3c e7 58 ba 3b b3 7f 9a bc
       0.02519728 0.009949351 0.0056868675 -0.01885972
000010 58 dd b5 bc cb b9 99 bb 39 39 68 bc cf ff 9a bd
       -0.022200271 -0.0046913377 -0.014173799 -0.07568323
000020 17 2d f8 3c c4 62 03 bd be bf 2e bd 50 68 69 3d
       0.030294938 -0.032076612 -0.04266333 0.056984246
000030 39 76 e8 3c 5d 99 e1 bb c4 d7 b7 3b c8 03 47 bc
       0.028376685 -0.0068847374 0.005610438 -0.012146898
000040 e9 24 89 3c ec dd cd 3c d2 ca e2 3c b5 5c 17 3c
       0.016741233 0.025130235 0.027684603 0.009238412
000050 98 8c ab 3b 2e db 26 3d cc 66 40 39 bf 62 bc bc
       0.005235266 0.04073637 0.00018348842 -0.022996305
000060 b0 b1 12 bd 44 fb ad 3b f0 2b c7 39 5e 8a 51 bd
       -0.035813987 0.005309494 0.00037988974 -0.051157348
000070 89 95 d3 bc b8 46 6a 3c 64 18 07 bc 0d 51 4c 3c
       -0.02582814 0.014299087 -0.008245561 0.012470496
000080 63 d3 fa 3c b2 d3 52 bc 03 63 88 bc 29 a3 bf 3c
       0.030618375 -0.012867855 -0.016648775 0.02339323
000090 1c 23 84 3c bf 89 65 3d 88 4a 5e 3a 0a a0 e1 3b
       0.016130023 0.056039568 0.0008479734 0.006885533
0000a0 e0 ea 1f bc 3b a8 75 3c c1 69 14 bc 18 06 bb 3d
       -0.009760588 0.014993723 -0.009058417 0.09132022
0000b0 03 c1 50 3c 9a 22 09 3d 98 01 0e 3d ca 9b 98 3d
       0.01274133 0.033480264 0.03466949 0.074515894
0000c0 5c 48 dd 3c 27 26 b3 3a fd 35 32 bd d2 83 c3 3c
       0.027012043 0.0013667986 -0.04350852 0.023866568
0000d0 66 b8 db bb 66 91 35 3d 22 a8 78 3d 9a a7 ec bd
       -0.0067053316 0.044328116 0.06070722 -0.11555405
0000e0 5c 5a 48 3d 56 42 72 bd e8 30 88 bc b5 b6 4d 3c
       0.0489143 -0.059145294 -0.016624883 0.012555768
0000f0 ab 1c b9 bc 6c 07 bf bd c3 58 97 bd cc ed 52 bd
       -0.022596678 -0.093275875 -0.07389977 -0.051496312
000100 99 36 4d 3d ed 89 04 3e 3d aa 31 3d d1 a4 63 bc
       0.050100897 0.1294324 0.043375243 -0.013894276
000110 13 0a 2a bd f5 00 c9 bd cf 24 3b bd 67 a0 7e 3c
       -0.041513514 -0.09814636 -0.0456894 0.015541173
000120 5e eb e9 bc 31 fc c2 bd ef b9 16 3d b0 28 e6 bc
       -0.028554615 -0.09520758 0.036798414 -0.028095573
000130 b8 9a c2 3b bc ba 86 3c 15 05 89 3c ce 50 77 3c
       0.005938854 0.016446464 0.016726056 0.015094949
000140 9d bb cf bd f9 3d 01 3b a2 ab 9d bc 1f 50 c5 bc
       -0.10143206 0.0019720776 -0.01924688 -0.024086056
000150 41 9a b9 bc 6d d0 99 bc 5c ba 7d 3d 3e be f4 3c
       -0.022656562 -0.018776143 0.061945304 0.02987587
000160 d3 29 b7 3c 34 2a f6 3c 99 32 eb 3c 78 80 4e 3c
       0.02235881 0.03004942 0.02871065 0.0126038715
000170 4b fc 58 3d 7b 41 65 3c 55 c5 34 3d e6 9f 5c 3c
       0.05297498 0.013992663 0.044133503 0.013465857
000180 07 25 77 bd d0 54 46 3c ab a1 39 3c d9 b0 cb 3d
       -0.060338046 0.012105182 0.011330049 0.099458404
000190 42 54 7b 3d 4b d4 10 3d 33 25 63 3c e5 56 b4 3c
       0.06135965 0.03535871 0.013863849 0.02201409
0001a0 bd 4e a9 bc 7e 22 84 3c c4 b4 28 3e 73 ca 19 bc
       -0.020667428 0.016129728 0.16475207 -0.009386647
0001b0 db b9 2f 3d 19 70 1d 3c b1 d9 24 3e 04 5c a3 ba
       0.042901855 0.009609246 0.16098668 -0.0012463336
0001c0 c0 9c cc bc ac e3 a2 3c 98 82 42 ba 07 6c 3f bb
       -0.024977088 0.019883953 -0.00074199727 -0.0029208676
0001d0 5e b4 cf 3c 49 e2 73 3c 72 81 16 bc 41 cc 80 3b
       0.02535456 0.014885494 -0.009186136 0.003930599
0001e0 0e 61 30 3d e6 4d 44 3c 4a ee 29 bc cc 1b af bc
       0.04306131 0.011981463 -0.010371754 -0.02137556
0001f0 3a db 23 3d c6 c4 34 3c 7f 4d 65 ba 40 25 8f 3d
       0.040003993 0.011033243 -0.00087472046 0.06989527
000200 62 01 03 bc 84 17 cd bc 0f e8 91 bc 68 09 46 3c
       -0.007995935 -0.025035627 -0.01781085 0.012087204
000210 50 85 bd 3b 3b 1f b9 3c fc 78 1d 3c 1a 4b 12 3c
       0.0057837144 0.0225979 0.009611364 0.008929038
000220 9a 08 06 ba b5 26 98 3d 69 e3 ad 3d 0e 61 09 3d
       -0.0005112976 0.07429258 0.08490641 0.033539824
000230 54 35 24 3d 7c 21 98 bc 15 4b ec 3b 16 b7 c4 3c
       0.04008992 -0.018570654 0.007211099 0.024013083
000240 a4 44 14 3d 33 65 e0 3c 43 7b 38 3b a0 6e 1f 3d
       0.036198273 0.027392006 0.0028149642 0.03892386
000250 a8 6e f6 bc f5 de 10 3c 5d c7 af 3b fa 60 08 bd
       -0.030082062 0.00884222 0.005364342 -0.03329561
000260 d8 c6 ac bd 24 60 a2 3d c2 ed 08 3c 47 39 ab bd
       -0.08436364 0.079284936 0.008357467 -0.08360534
000270 e9 c7 0e bc 4c e6 4e 3b 60 58 66 3b a7 84 13 bd
       -0.0087146545 0.0031570373 0.003514789 -0.03601518
000280 e8 67 ed 3c 21 cd 08 3a 2d 87 f0 3b 76 13 26 bc
       0.02898021 0.0005218555 0.007340333 -0.010136476
000290 ed cb fc 3a 07 8a 99 3d 11 66 5c 3d 05 55 f7 3c
       0.0019286849 0.0749703 0.053808276 0.030191908
0002a0 d8 10 eb bc 4b d8 2d 3c 80 db c7 bb 6c 3e bb 3c
       -0.028694555 0.01061065 -0.0060991645 0.022856914
0002b0 98 13 83 3d b2 33 8b 3c 24 23 e1 bd 89 53 31 3c
       0.064002216 0.016992424 -0.10993031 0.010823139
0002c0 8a 13 7b bc 9d f7 36 3c 54 04 15 3d 17 a3 54 3d
       -0.015324483 0.011167434 0.03638108 0.051913347
0002d0 a7 cc ab 3c 33 04 bf bc ec 7d 63 3c 5e 5c 7e 3c
       0.02097161 -0.023317432 0.013885003 0.015524952
0002e0 d6 ea 0e bc c2 15 ea 3b df 26 a0 3c 6a 3c 0c bd
       -0.008722981 0.007143707 0.019549785 -0.034237303
0002f0 87 cd 87 bd
       -0.06630998

running_var f4 [189]
000000 5b 9c 52 3f 6b 95 51 3f 89 83 59 3f 03 43 5e 3f
       0.8226983 0.8186862 0.8496633 0.86821
000010 c2 6c 54 3f 63 22 66 3f 3a d9 51 3f 46 b6 62 3f
       0.8297845 0.8989622 0.81972086 0.8855938
000020 58 c6 53 3f 0f 87 65 3f 4c 1f 70 3f e9 ce bb 3f
       0.82724524 0.8965921 0.93797755 1.4672519
000030 f8 a4 53 3f 08 c8 59 3f da 75 7b 3f af 2e 70 3f
       0.826736 0.8507085 0.982267 0.93821234
000040 83 3a 59 3f a2 6b 60 3f 96 01 80 3f 75 0e 52 3f
       0.84854907 0.87664235 1.0000484 0.8205331
000050 c8 7d 77 3f 90 be 55 3f 85 01 65 3f 42 13 66 3f
       0.966763 0.834939 0.89455444 0.89873135
000060 c7 ff 62 3f b1 35 55 3f 1b d9 5d 3f 91 af 57 3f
       0.88671535 0.8328505 0.866594 0.8425227
000070 dd cf 58 3f b5 df 62 3f 0e bd 55 3f c8 e4 52 3f
       0.84692174 0.886226 0.834916 0.8238034
000080 7d 7a 78 3f 43 26 54 3f e7 9f 5d 3f c1 c2 5d 3f
       0.970619 0.8287088 0.86572117 0.86625296
000090 dc 5a 53 3f ee a3 62 3f 8c c1 50 3f 28 0d 5d 3f
       0.82560515 0.88531387 0.8154533 0.863482
0000a0 49 61 52 3f d0 52 52 3f 03 28 7d 3f 41 08 95 3f
       0.82179695 0.8215761 0.9888918 1.1643144
0000b0 07 aa 53 3f 54 4b 54 3f 18 e9 58 3f 4c 0b 80 3f
       0.82681316 0.8292744 0.8473067 1.0003448
0000c0 e1 f2 52 3f d1 f0 51 3f 7c e9 5c 3f d7 99 53 3f
       0.82401854 0.8200808 0.8629377 0.82656616
0000d0 15 41 52 3f 9d 5b 96 3f 27 c9 62 3f 34 f7 84 3f
       0.8213056 1.1746708 0.88588184 1.038794
0000e0 fd 5f 5c 3f 3b 9f 64 3f 8e 94 55 3f 2b 65 55 3f
       0.86083966 0.89305466 0.834298 0.83357495
0000f0 de ce 57 3f 6f ec 97 3f a4 fd 6f 3f 5b d1 62 3f
       0.8430003 1.1869029 0.937464 0.886007
000100 52 1a 69 3f 7e e2 8a 3f 2e 1a 66 3f c2 28 55 3f
       0.91055787 1.085037 0.898837 0.83265316
000110 7e 30 5b 3f c0 f5 ab 3f 2e 4d 58 3f 96 32 61 3f
       0.8562087 1.3434372 0.84492767 0.87967813
000120 ca 2e 68 3f 48 16 8d 3f 94 72 77 3f c6 80 59 3f
       0.90696394 1.1022425 0.9665921 0.8496212
000130 f6 98 51 3f 34 f7 51 3f cc a6 5a 3f 17 93 6a 3f
       0.81874025 0.8201783 0.8541076 0.9163069
000140 64 a3 9d 3f 37 ca 7c 3f 7d 32 53 3f 8b 93 69 3f
       1.2315488 0.98746055 0.82498914 0.9124076
000150 67 4e 66 3f 40 66 6f 3f 38 7b 67 3f f0 60 60 3f
       0.8996338 0.93515396 0.9042239 0.87647915
000160 a9 36 52 3f 20 c6 55 3f bf cb 73 3f 3d 1f 84 3f
       0.82114655 0.8350544 0.95232767 1.0322033
000170 ae 94 74 3f 2f bb 54 3f a8 7b 58 3f e5 3a 56 3f
       0.9553937 0.8309812 0.84563684 0.83683616
000180 33 a9 5b 3f fd aa 59 3f 65 ad 52 3f c9 f8 7b 3f
       0.8580505 0.8502653 0.8229583 0.9842649
000190 e9 b5 60 3f 74 8a 58 3f 88 1b 56 3f 84 34 51 3f
       0.8777757 0.8458626 0.8363576 0.8172076
0001a0 93 63 54 3f 21 86 52 3f 5b a9 c7 3f ab 40 60 3f
       0.8296444 0.82235914 1.5598558 0.87598675
0001b0 a2 be 59 3f 7f 76 52 3f a1 8d 94 3f 53 59 6a 3f
       0.8505651 0.8221206 1.1605722 0.9154255
0001c0 6d c6 56 3f 21 a1 55 3f 29 2d 52 3f 5d c7 54 3f
       0.83896524 0.8344899 0.8210016 0.83116704
0001d0 aa be 56 3f e8 8c 51 3f a3 a4 51 3f d0 27 56 3f
       0.8388468 0.8185563 0.8189184 0.836545
0001e0 56 61 62 3f b7 81 5d 3f 26 fc 62 3f ba f4 55 3f
       0.8842977 0.86526054 0.88666 0.8357655
0001f0 81 fa 64 3f a4 a2 54 3f 3d 61 54 3f a9 35 7c 3f
       0.8944474 0.8306067 0.82960874 0.9851938
000200 68 c8 61 3f 5c 88 55 3f f9 43 70 3f 37 11 52 3f
       0.8819642 0.8341119 0.9385372 0.8205752
000210 90 48 55 3f 45 2f 5f 3f 3a a3 7f 3f d3 d9 55 3f
       0.83313847 0.871815 0.9985844 0.835355
000220 81 7f 54 3f 51 f6 7e 3f c0 38 76 3f 00 9a 5b 3f
       0.83007056 0.995946 0.96180344 0.8578186
000230 32 e4 67 3f 18 c0 54 3f 1f a9 55 3f bd f1 58 3f
       0.90582573 0.8310561 0.83461183 0.84743863
000240 de 52 73 3f f2 ca 59 3f 0c 79 72 3f 85 6b 58 3f
       0.9504832 0.85075295 0.9471595 0.8453906
000250 07 79 5f 3f 41 cd 54 3f d1 0f 54 3f f0 57 6d 3f
       0.8729405 0.8312569 0.82836634 0.92712307
000260 5d 7c 68 3f ba 77 a1 3f 32 8c 53 3f 98 d3 5d 3f
       0.90814763 1.2614663 0.82635796 0.8665099
000270 a4 95 65 3f e8 f2 65 3f af 8d 55 3f 44 63 55 3f
       0.8968146 0.8982377 0.83419317 0.8335459
000280 6e ca 54 3f 11 76 55 3f 6e 53 56 3f df 8b 51 3f
       0.83121383 0.8338328 0.83721054 0.8185405
000290 6e 10 58 3f 83 79 61 3f c2 96 68 3f 5d 69 58 3f
       0.8440007 0.8807604 0.9085504 0.8453577
0002a0 5d c6 6a 3f f2 a9 52 3f d8 51 70 3f 4e 6a 55 3f
       0.9170893 0.82290566 0.93874884 0.83365333
0002b0 d1 88 77 3f 44 49 68 3f 7d ea 8d 3f 54 13 57 3f
       0.9669314 0.90736794 1.1087185 0.8401387
0002c0 38 3d 5b 3f f2 17 57 3f fb 71 65 3f 4a f3 bc 3f
       0.8564029 0.8402091 0.89627045 1.4761746
0002d0 12 7b 5b 3f 31 f7 53 3f 54 f6 55 3f d4 6f 67 3f
       0.85734665 0.8279906 0.8357899 0.9040501
0002e0 6f 3b 57 3f d2 7d 53 3f 10 04 56 3f 3c fc 56 3f
       0.84075063 0.8261386 0.8359995 0.8397863
0002f0 5b 9f 61 3f
       0.8813378

weight f4 [20, 189]
000000 35 32 46 3d 36 2b 5f 3d ae a8 7a bd 0c d9 94 3d
       0.048387725 0.05448457 -0.06119602 0.07267961
000010 12 54 0c bc 03 75 e7 bb 34 87 46 3d bb d3 d3 3c
       -0.008564966 -0.0070635094 0.048468783 0.025857797
000020 0c c5 92 3d 13 64 50 bd 8c 3d 54 bd e8 9e 8d 3a
       0.0716649 -0.05087669 -0.05181651 0.0010804804
000030 f7 e6 b0 bc cc 54 09 bd fe ff 29 3c 23 36 2f 3d
       -0.021594508 -0.033528134 0.010375975 0.04277624
000040 ae bd e3 3b d3 67 e3 3c 81 75 d8 3c d7 f2 41 bd
       0.006950102 0.027759468 0.026423218 -0.04735073
000050 5a f6 37 3d 32 7a 9b 3c c1 c5 96 3c ab d4 85 bb
       0.044912674 0.018979166 0.018404843 -0.00408419
000060 05 d7 5b 3d 2c 68 b0 bc e9 95 01 3d a7 43 84 3d
       0.053671855 -0.021534048 0.031637106 0.06458216
000070 5d 56 43 bd 94 8f 08 bd df 55 fd bc b7 13 59 bd
       -0.047689784 -0.03334005 -0.030924736 -0.052997317
000080 fd 15 c7 3c 84 b4 58 3d c4 3c 31 3d 0f e4 d5 bc
       0.024302477 0.052906528 0.04327084 -0.026109723
000090 83 52 92 3d b1 53 37 3d 72 75 19 3c 0e 29 39 bd
       0.07144644 0.04475755 0.00936638 -0.04520517
0000a0 0c 23 58 3d 26 3c 8f bd 3b b8 22 bc e8 68 2f bd
       0.0527678 -0.06993894 -0.009931619 -0.042824656
0000b0 db c1 5b 3c 1c 4b 49 bd ee 51 25 bc e1 94 3e bd
       0.013412918 -0.049143896 -0.010090334 -0.0465287
0000c0 56 6d 94 bd 83 8f 65 3d da 0b 19 3d 63 ef 66 3d
       -0.07247417 0.056045067 0.03736482 0.05638064
0000d0 5a 68 81 bd 99 e9 45 3c 4f 23 1f bd b1 ae 84 bc
       -0.063187316 0.01207962 -0.038852032 -0.01619658
0000e0 f7 89 76 3d 18 fa 79 3d 6d 00 8f 3d f2 4b 6e 3d
       0.060190167 0.061029524 0.06982503 0.058177896
0000f0 c7 fd 19 3c de a5 65 bd 9b bb 00 bd d1 cc b7 3c
       0.009398884 -0.056066386 -0.031428915 0.022436531
000100 21 74 1b 3d 1d 2c a3 3c 8b 61 68 bd 36 bc a7 3c
       0.037952546 0.019918496 -0.05673365 0.020475488
000110 ca c4 6c bd 91 b9 94 3d cb 03 82 bd c2 86 8a 3d
       -0.05780486 0.072619565 -0.0634838 0.06763984
000120 4c 15 33 bc 93 73 7a bd 11 22 4a 3d 66 3e 6a bd
       -0.010930371 -0.061145376 0.049348895 -0.057188414
000130 35 40 6f bd 56 ad 19 bd c5 3e 93 bd b1 60 0e bb
       -0.058410842 -0.03751882 -0.07189707 -0.0021725113
000140 1e 7d 82 3d 96 81 1f 3d b9 2f 5d 3d 76 80 52 3c
       0.063715205 0.038941942 0.05400059 0.01284801
000150 e0 f5 b9 bc b1 30 95 bd d7 93 47 3d e4 5a 45 3b
       -0.02270025 -0.07284678 0.048724975 0.003011399
000160 59 83 a8 bc 4c 6e 41 3d be 2c 6f 3d 12 dd 5f 3d
       -0.020570444 0.047224328 0.05839228 0.05465419
000170 d3 08 16 bd 70 94 32 3d 8f 12 4c bc 60 78 83 bd
       -0.03662951 0.043598592 -0.012455597 -0.06419444
000180 cc ee 93 3d db ef cb 3b 9a 04 36 bd 3b b3 3c 3d
       0.07223281 0.0062236614 -0.044437982 0.046069365
000190 5a e7 0c bd d5 29 7e bd ac 60 a4 bc fb fb 5b 3c
       -0.03440032 -0.062051613 -0.020065628 0.013426776
0001a0 e4 6d 7b bd da c7 87 bd a8 ee ce 3c 4e ac 87 3c
       -0.061384097 -0.066299155 0.025260285 0.016561653
0001b0 d9 81 80 bd 93 6c b5 bb 64 b7 bb 3c 08 41 83 3c
       -0.062747665 -0.0055366247 0.022914596 0.01602222
0001c0 4a 2b 51 3c 2c fd 90 3c 10 fd 77 bc 28 35 75 3d
       0.012766669 0.017698847 -0.015136018 0.059865147
0001d0 12 d5 ce 3c 8e 15 36 3d 33 3c 35 bd a8 8c 3f 3d
       0.025248084 0.04445415 -0.044246864 0.046765
0001e0 9b 0a 68 3c 1c a4 f6 bb 04 c1 81 3d 23 97 84 3d
       0.014162685 -0.0075268876 0.06335643 0.064741395
0001f0 a5 dc fb 3c e8 50 d6 bc 28 c3 a8 bc 2d ed 26 3c
       0.03074486 -0.026161626 -0.02060087 0.010188383
000200 d5 78 2e 3d f2 2a 1f 3d 06 a3 45 3d c0 f8 29 bb
       0.042595703 0.038859315 0.048251174 -0.002593562
000210 4c d6 08 bd 2f 33 40 3b e6 19 00 bd 61 fc 50 bd
       -0.033407494 0.0029327383 -0.0312747 -0.051021937
000220 ac fb 43 3c 42 c2 0e 3d bb 94 30 3d 23 b8 02 3d
       0.011961859 0.034853227 0.04311059 0.031913888
000230 91 f3 91 bd 03 10 1a bd a2 84 89 3d 40 f1 45 bd
       -0.07126535 -0.037612926 0.06714751 -0.048325777
000240 34 81 e3 3c 2f 60 34 bd cc 14 1b 3c e3 55 62 3d
       0.02777157 -0.04403704 0.009465408 0.05525769
000250 c6 c4 89 bd 56 db db 3b b1 49 3f 3c e4 8e da bc
       -0.06726985 0.0067094965 0.011675284 -0.026679464
000260 1d 16 2a bc fe 01 da 3c e3 12 5d bd d8 47 0d 3d
       -0.010381249 0.026612278 -0.05397309 0.034492344
000270 6b b9 95 3c fc c9 62 3c 40 b7 6e 3c c7 fa 4d bd
       0.01827689 0.013842102 0.014570057 -0.050287988
000280 92 3c a2 3c bd cb 39 bb 27 21 4f bd 7f df 84 bd
       0.019804273 -0.0028350197 -0.050568726 -0.06487941
000290 ff df 57 bd 78 f3 95 bb 2d d3 88 bd 7b 38 88 bd
       -0.052703854 -0.004576143 -0.066809036 -0.06651398
0002a0 a0 3b 90 bd ad ea 16 bd 63 28 29 3c 6d a8 52 3d
       -0.070426226 -0.036844898 0.01032457 0.051430155
0002b0 fa b2 f4 3b cf 1b fa 3b b4 37 11 bd 84 7d 2b bc
       0.0074676247 0.0076327096 -0.035453513 -0.010466937
0002c0 20 9d 13 bd 0a b7 da bc a2 41 68 3d d7 f3 1e 3d
       -0.036038518 -0.026698608 0.056703217 0.038806763
0002d0 ad d5 dd bc d7 b3 aa 3c a4 e5 f8 3c 08 ce 1f bd
       -0.027079428 0.020837707 0.030382939 -0.039014846
0002e0 4a 8f 58 bd c2 0f f0 bc 2d 2c 1d 3d f2 36 02 3d
       -0.052871026 -0.029304389 0.038372207 0.03179068
0002f0 12 f7 07 3d 52 cd 3e bd 30 ef 3e bd 93 50 53 bc
       0.03319461 -0.046582527 -0.046614826 -0.012897628
000300 a3 9d c7 bc 6f fe 52 3c 42 05 56 3c 5a 4a 66 ba
       -0.02436716 0.0128780445 0.013062777 -0.0008784883
000310 f5 c0 65 3c c6 3e 1b bd 07 9f 41 3c 40 f8 38 bd
       0.014023055 -0.037901662 0.0118177 -0.045158625
000320 1c a3 93 3d dd 07 62 bc f5 76 51 3d 82 54 84 bb
       0.07208845 -0.01379582 0.051138837 -0.0040383944
000330 97 7b 08 bd ee 51 00 bd 15 c4 63 3c cb f8 30 3d
       -0.03332099 -0.031328134 0.01390173 0.043206017
000340 f2 74 9c 3c 22 b1 eb bc 52 cc 7d 3d a0 1a 4e 3d
       0.019098733 -0.028770987 0.061962433 0.05031836
000350 6e 6a 6e bd f5 39 5e bd f1 9c 8e 3d 2d 36 76 3c
       -0.058206968 -0.05425449 0.06963528 0.015027565
000360 f9 a6 bf bc e5 c0 14 bd 03 4b 11 3c 35 8d 91 bd
       -0.023395048 -0.03631677 0.008867982 -0.07107011
000370 d9 33 85 3b f9 35 4e 3c ee 71 d4 bc 05 4a 7c 3d
       0.0040650186 0.01258611 -0.025933232 0.061594028
000380 6e dd af 3c 8f 64 89 3d 1c 86 93 3d 6e 1d 24 bd
       0.02146789 0.06708633 0.07203314 -0.04006713
000390 53 f6 80 bd 7d 44 ce bb d1 3b 79 bc e2 c4 2d 3c
       -0.062969826 -0.0062947855 -0.015212015 0.010606023
0003a0 3d 5b 7c bc 7a d1 0d bd 8a cc 81 3d 9b 40 0f 3d
       -0.015402612 -0.0346236 0.06337841 0.034973722
0003b0 50 21 18 bc 33 46 8d 3d b1 9f 30 bd 49 22 e8 3b
       -0.009285286 0.06898155 -0.043121044 0.0070841652
0003c0 f9 dc 5c bd 71 06 2f 3b 52 90 61 3c 1f 94 74 bd
       -0.053921673 0.002670672 0.013767319 -0.05971157
0003d0 4d a9 9d 3c da 9f 5a 3d 58 b0 9e 3c cc 1a 3f 3d
       0.019245768 0.053375103 0.019371197 0.046656415
0003e0 ef 1f 26 bd 5d 49 5b bd 35 d5 90 bd 21 2b e0 3c
       -0.040557798 -0.05353676 -0.07071916 0.027364315
0003f0 05 0b 3f 3d 8f 81 82 3d 63 48 ba 3c e2 7c 84 bc
       0.04664137 0.063723676 0.022739595 -0.01617283

weight f4 [20]
000000 c2 03 80 3f 1c fe 7f 3f 99 f3 7f 3f b8 fa 7f 3f
       1.0001147 0.99997115 0.99981076 0.9999194
000010 78 f8 7f 3f 23 f4 7f 3f 88 06 80 3f 5e 05 80 3f
       0.9998851 0.999819 1.0001993 1.0001638
000020 fc f2 7f 3f b3 04 80 3f 9f 05 80 3f f0 f6 7f 3f
       0.9998014 1.0001434 1.0001715 0.9998617
000030 5c 06 80 3f 9c f6 7f 3f 54 fc 7f 3f 2a f3 7f 3f
       1.0001941 0.9998567 0.999944 0.99980414
000040 2d 03 80 3f b8 05 80 3f 88 f4 7f 3f 81 f8 7f 3f
       1.0000969 1.0001745 0.999825 0.9998856

bias f4 [20]
000000 c8 13 08 35 3f 86 86 b5 a3 8f 81 36 54 78 d3 34
       5.0692734e-07 -1.0022849e-06 3.861221e-06 3.9389363e-07
000010 f2 03 e3 b5 0a cc 07 b5 2e 52 08 b6 db 77 3e 36
       -1.6913966e-06 -5.0588335e-07 -2.0313414e-06 2.8381971e-06
000020 89 dd ac 35 12 84 bf b5 f5 c3 0a b6 fc 86 d2 b5
       1.2879474e-06 -1.4269046e-06 -2.0677664e-06 -1.5685505e-06
000030 b5 08 ec b5 eb 4b 39 b5 83 44 e7 35 ac 99 34 b6
       -1.7585904e-06 -6.9028346e-07 1.7230781e-06 -2.691154e-06
000040 e4 cb 8f 35 5c 7c 90 b4 75 00 03 b4 44 27 d5 34
       1.071367e-06 -2.6912574e-07 -1.2200492e-07 3.970291e-07

running_mean f4 [20]
000000 21 50 37 3d 99 49 32 3d f2 ef 34 3d b9 51 38 3d
       0.04475415 0.04352722 0.044174142 0.04499981
000010 da c7 2e 3d 22 0e 35 3d 4a b6 3d 3d f0 4a 41 3d
       0.042671062 0.04420293 0.046316423 0.047190607
000020 23 c5 2a 3d ee 8c 34 3d a5 db 32 3d 99 48 36 3d
       0.04169191 0.044079714 0.0436665 0.04450283
000030 42 14 2e 3d 5c 97 34 3d 01 d1 33 3d 2f 73 2f 3d
       0.042499788 0.04408966 0.043900494 0.042834457
000040 0e cc 26 3d fb ce 34 3d ca 8b 2f 3d 6e 11 31 3d
       0.040721945 0.044142704 0.042857923 0.043229513

running_var f4 [20]
000000 fd 24 56 3f 5c a7 55 3f f3 f4 55 3f 39 1c 56 3f
       0.8365019 0.83458495 0.8357689 0.83636814
000010 4b c7 55 3f 05 15 56 3f 2f b8 56 3f 3b ed 56 3f
       0.8350722 0.83625823 0.8387479 0.83955735
000020 e6 72 55 3f c7 ec 55 3f ed d6 55 3f 7a f8 55 3f
       0.83378446 0.8356442 0.83531076 0.8358227
000030 99 97 55 3f 00 48 56 3f 7b f0 55 3f 93 7b 55 3f
       0.83434445 0.83703613 0.8357007 0.83391684
000040 0a f1 54 3f d5 ed 55 3f 26 a2 55 3f a5 8c 55 3f
       0.83180296 0.8356603 0.83450544 0.8341773

weight f4 [189, 20]
000000 82 63 0c 3e e0 98 f1 3d ff 8c 89 bd f3 71 18 3d
       0.13709834 0.11796737 -0.06716346 0.037218045
000010 6f 25 00 3e 08 1c e0 3c d3 57 4d bd 86 3c 42 3e
       0.1251428 0.027357116 -0.050132584 0.189684
000020 45 0a 50 3e df 7a aa 3d f3 be fc 3d 46 f0 27 be
       0.20316418 0.08324217 0.12341108 -0.16400251
000030 9d 67 25 bd 78 d5 1a be f0 7d a9 3d bc 18 40 3e
       -0.040382016 -0.15120494 0.08275974 0.18759435
000040 0b 13 4d be d8 11 a0 3d 2f ed 41 3e 67 0c 44 3c
       -0.20026796 0.078159034 0.18938135 0.011965848
000050 91 c2 62 be 0a 87 d4 bc 6a b7 d0 bd 46 09 7b bd
       -0.22144534 -0.025943298 -0.101912335 -0.06128814
000060 f1 93 a6 3d e8 7e dd bb 19 6c 1e be 56 24 d1 bb
       0.08133686 -0.006759513 -0.15470923 -0.0063825054
000070 25 66 50 3a 55 04 d7 bb e7 42 2a be 02 e0 a9 bb
       0.0007949791 -0.0065617957 -0.16627084 -0.0051841745
000080 98 11 f3 bd 01 25 e3 bd 69 bd 22 3b 58 f7 44 3e
       -0.1186859 -0.11091042 0.0024832136 0.19234979
000090 78 72 0e 3e 6d 6d cd 3d 7a f6 ac 3c 96 36 f0 bd
       0.13910854 0.10030637 0.021113623 -0.117291614
0000a0 6e 0a 27 3e f8 a6 a5 3d 79 e8 40 be 79 34 97 bd
       0.16312572 0.080884874 -0.18838681 -0.07383055
0000b0 07 c9 88 3b d4 bd 2e be 65 e5 08 3d e6 ac 7f bc
       0.004174355 -0.17064601 0.033421893 -0.015605187
0000c0 af c8 32 be ac e3 21 3e c8 dd 62 3e 7d 74 2d 3d
       -0.17459367 0.15809506 0.22154915 0.04234742
0000d0 11 c3 de 3d 9b d5 c6 3d a9 16 4b 3e 99 4a 52 be
       0.1087705 0.09708711 0.19832863 -0.20536269
0000e0 9b 3d 90 39 f7 82 8a bd 03 31 a9 bc 4b 26 d3 bd
       0.0002751172 -0.06763261 -0.020653253 -0.10310038
0000f0 9f 55 06 3d 1d 5f 1d 3e 21 5e 51 be d9 c4 87 bd
       0.0327965 0.15368314 -0.20446064 -0.066293426
000100 fe ab 9a 3d 2d 09 61 3d a6 74 12 be bc 02 f8 3d
       0.07552336 0.05494039 -0.1430231 0.121098965
000110 e4 ba 55 3e 1e 75 83 bc 2d d5 18 3e 82 8a 40 3c
       0.20872074 -0.016047057 0.1492507 0.011751773
000120 66 0d ca 3d 3a 43 aa bd 09 aa 41 3d b1 f3 4e bd
       0.09865837 -0.08313604 0.0472813 -0.05052537
000130 dd 3f 01 be 36 c9 f1 3d f1 e4 55 3e da 3e 77 3d
       -0.12622018 0.11805956 0.20888115 0.060362674
000140 ab 1a 1d 3e 35 16 8d bd 94 e7 40 3e 07 fa c5 bd
       0.15342204 -0.06889001 0.1883834 -0.096668296
000150 16 0f 21 3e e5 46 d8 3c 00 ca 9b 3d b6 46 35 be
       0.15728411 0.026400993 0.07606888 -0.17702755
000160 bf db 56 be ca fc 20 3e a2 56 55 3e 14 de 1c be
       -0.20982264 0.15721431 0.20833829 -0.15319091
000170 b6 03 6f bc de 77 53 3e 24 af 56 bc 12 ff c0 bd
       -0.014588287 0.20651194 -0.01310328 -0.09423651
000180 dc d1 02 3d de 2c 8b 3d 04 1c 1f bd 36 32 d8 bd
       0.03193842 0.06795667 -0.038845077 -0.10556452
000190 46 56 ac bc 81 1d 63 3e 38 95 47 3d 83 b3 52 3e
       -0.021037232 0.22179224 0.04872629 0.20576291
0001a0 c1 89 15 be 1e d5 d9 3c 5d fa 4c 3e 75 96 23 be
       -0.1460333 0.02659088 0.20017381 -0.15975364
0001b0 ab f1 e9 3d 38 24 e2 3c b8 78 5b 3d 13 7f 4c 3e
       0.11423048 0.027605161 0.053581923 0.1997035
0001c0 95 5d 35 3e e6 f4 b0 3d 67 da 71 3d 74 70 58 3d
       0.1771148 0.08640461 0.059046175 0.05284162
0001d0 3d 60 01 3e 71 fd f7 3d 90 5a 38 be 84 db aa bd
       0.12634368 0.12108887 -0.18003297 -0.083426505
0001e0 f8 df 0a be 28 2a 13 bd 34 bd 58 3b 7a a6 34 bd
       -0.13562 -0.035928875 0.0033071758 -0.044104077
0001f0 84 3f 60 3e 93 ce 4f be 59 96 1d 3e 74 58 62 3e
       0.2189923 -0.20293646 0.15389384 0.22104055
000200 3d dc 74 3d 36 b8 54 be 2c ce f7 3d fc 78 78 3d
       0.059780348 -0.20773396 0.12099871 0.060662255
000210 9b 9f 20 3e d0 1d 5f 3e d7 f7 63 be 53 1a e4 bd
       0.15685885 0.21788716 -0.22262512 -0.111378334
000220 11 79 b2 3d fc cc 4f 3c 8c 44 96 bd 47 1a 00 be
       0.08714498 0.012683149 -0.07337293 -0.12510024
000230 86 d4 22 be 19 6a 63 be 44 8f 0f be b3 d8 26 be
       -0.15901384 -0.22208442 -0.14019495 -0.16293602
000240 ff 8a 2a 3d cd be fa 3a dd 33 01 3e f9 89 40 be
       0.041636463 0.0019130349 0.1261744 -0.18802632
000250 9c 06 d7 3d 2e 05 d0 bc d2 55 e2 bd 75 c3 df 3d
       0.104993075 -0.025393095 -0.11051525 0.10925952
000260 9d 98 8a bd 4e d3 49 be 16 ea eb bd 32 d9 cc bc
       -0.0676739 -0.19709513 -0.11519258 -0.02500591
000270 b2 3d 6e bd 56 e0 ef 3d 2e 19 80 3d 92 44 1c bd
       -0.058164306 0.117127106 0.06254803 -0.03815133
000280 a1 74 05 be c0 35 42 be c2 49 2c be e4 3b e0 bd
       -0.13032772 -0.18965816 -0.16825011 -0.10948923
000290 f8 50 1b bd de e3 5d 3e 41 ff 88 bd f4 5a 13 3e
       -0.037919015 0.21668956 -0.06689311 0.14390165
0002a0 04 55 4a 3e 3b 5d 81 3b 87 15 34 3e 83 2e 59 be
       0.19758993 0.0039478815 0.17586337 -0.21209149
0002b0 0e 60 d1 bd a6 02 c2 3d 32 c9 2f 3e 86 0f 13 bd
       -0.10223399 0.094731614 0.17166594 -0.035903476
0002c0 3f 58 0e 3e fe 75 3a 3e 32 99 a4 bc 2e 27 a3 bd
       0.1390085 0.18209073 -0.02009258 -0.07966457
0002d0 86 d4 b3 bc 41 71 24 3e e2 ea 0e be e9 02 78 3d
       -0.021951925 0.16058828 -0.13956788 0.06054965
0002e0 b9 a2 8b 3d b9 97 52 3e a7 29 52 be a9 60 04 3e
       0.06818146 0.2056569 -0.20523702 0.12927498
0002f0 f9 28 11 be 08 7b b1 3d 7c 36 09 3d fe c9 c6 3c
       -0.14175786 0.086660445 0.033499226 0.02426624
000300 9f d6 00 bd 24 db bf 3d 1b d2 e3 bc d1 01 24 be
       -0.03145468 0.0936797 -0.027810147 -0.16016318
000310 dd d9 05 bd 9f 1a 10 3d 3f 82 46 be 63 02 4b 3e
       -0.032678474 0.035181638 -0.19385622 0.19825129
000320 b2 4f 4c be b2 cf fe bd 09 bf eb 3d 2d 3b 2c be
       -0.19952276 -0.124419585 0.115110464 -0.16819449
000330 df 66 14 be 13 58 44 3d bc ab 75 bd 98 13 64 3e
       -0.14492367 0.047935557 -0.05997823 0.222731
000340 00 3a 88 bd 04 2b 02 3e 44 39 31 be 50 f9 7c bd
       -0.066516876 0.12711722 -0.17307001 -0.0617612
000350 79 a5 12 3e f6 22 4a 3e df 71 1f 3e d3 83 90 3d
       0.14320935 0.19739899 0.15570782 0.070563935
000360 24 7e 14 3c f5 af 35 3d 51 44 4e 3e d4 b0 31 3e
       0.009063277 0.04435726 0.20143248 0.17352611
000370 03 22 3d 3e 65 5d 51 bd 5c 96 80 bd 3f ea 5e bd
       0.18470006 -0.05111446 -0.06278679 -0.054422613
000380 cf 1a ad 3d ee ae d2 bd 94 6c f2 bb 91 7c 3e be
       0.08452379 -0.102872714 -0.0073981974 -0.18602206
000390 25 c4 5d bd 21 8d 0d 3e e8 2b 00 be fd 3a 32 be
       -0.054142136 0.13823368 -0.12516749 -0.17405315
0003a0 f1 bc 03 3e 84 6d 1e 3e bc 1f 12 3e 9d cf e1 3d
       0.12865044 0.15471464 0.14269918 0.11025927
0003b0 fa 62 0f be ed 90 93 bc ce fa e7 3d 3c 74 64 be
       -0.140026 -0.018013442 0.11327134 -0.22309965
0003c0 1f 3f b0 3d 83 37 21 be 18 d1 37 bd a1 77 1b be
       0.086057894 -0.15743832 -0.04487714 -0.15182354
0003d0 49 2b 5e bd 77 7a 04 3b 17 ff 00 be 2d 33 30 3e
       -0.0542405 0.0020214596 -0.12597309 0.17207022
0003e0 68 ba 64 3c 0b dd 37 be 6f 53 46 3e 88 b6 07 3e
       0.013960458 -0.17955415 0.19367765 0.13253224
0003f0 17 0d 0b 3d d5 37 61 3e 77 db 5e 3d b4 19 32 be
       0.03394803 0.21993954 0.054408517 -0.17392617

weight f4 [189]
000000 e8 fb 7f 3f 52 fc 7f 3f b6 01 80 3f 2c fe 7f 3f
       0.99993753 0.99994385 1.0000522 0.9999721
000010 5b f4 7f 3f 3a 06 80 3f a2 f3 7f 3f f8 05 80 3f
       0.9998223 1.00019 0.9998113 1.0001822
000020 ba 02 80 3f bf f3 7f 3f 82 06 80 3f 87 06 80 3f
       1.0000832 0.999813 1.0001986 1.0001992
000030 e5 02 80 3f cb 04 80 3f 7c 04 80 3f cd f3 7f 3f
       1.0000883 1.0001463 1.0001369 0.99981385
000040 37 fb 7f 3f 2c 06 80 3f 8a 06 80 3f 4b 06 80 3f
       0.999927 1.0001884 1.0001996 1.000192
000050 ce fb 7f 3f 04 fe 7f 3f 1f 06 80 3f 80 06 80 3f
       0.999936 0.9999697 1.0001868 1.0001984
000060 e3 f2 7f 3f 96 05 80 3f 4c fc 7f 3f 74 06 80 3f
       0.9997999 1.0001705 0.9999435 1.0001969
000070 fe 02 80 3f eb 03 80 3f 03 f3 7f 3f 77 f9 7f 3f
       1.0000913 1.0001196 0.9998018 0.9999003
000080 7d f5 7f 3f 45 06 80 3f 60 02 80 3f 28 06 80 3f
       0.9998396 1.0001913 1.0000725 1.0001879
000090 9c f3 7f 3f 02 05 80 3f 59 fa 7f 3f 4f 06 80 3f
       0.99981093 1.0001528 0.99991375 1.0001925
0000a0 0a f8 7f 3f 8f 06 80 3f 89 06 80 3f 05 f3 7f 3f
       0.9998785 1.0002002 1.0001994 0.99980193
0000b0 40 06 80 3f e1 05 80 3f 25 02 80 3f f7 02 80 3f
       1.0001907 1.0001794 1.0000654 1.0000905
0000c0 70 01 80 3f 3a 01 80 3f 59 06 80 3f d1 05 80 3f
       1.0000439 1.0000374 1.0001937 1.0001775
0000d0 f9 f2 7f 3f df 02 80 3f 8f f4 7f 3f 04 05 80 3f
       0.9998012 1.0000876 0.9998254 1.0001531
0000e0 c4 f3 7f 3f 2b f6 7f 3f ea 05 80 3f fd f2 7f 3f
       0.9998133 0.99985 1.0001805 0.99980146
0000f0 06 f3 7f 3f 0e f3 7f 3f 01 f3 7f 3f 3c 06 80 3f
       0.999802 0.9998025 0.9998017 1.0001903
000100 61 f3 7f 3f 12 f3 7f 3f 86 06 80 3f e4 f2 7f 3f
       0.9998074 0.9998027 1.0001991 0.99979997
000110 fe f2 7f 3f 8b 06 80 3f 44 f8 7f 3f 9a fa 7f 3f
       0.9998015 1.0001997 0.999882 0.9999176
000120 55 06 80 3f 18 04 80 3f e4 f3 7f 3f 2b f3 7f 3f
       1.0001932 1.0001249 0.9998152 0.9998042
000130 cd f7 7f 3f 36 01 80 3f ac f3 7f 3f 9d 02 80 3f
       0.9998749 1.000037 0.9998119 1.0000798
000140 b5 f3 7f 3f 88 f3 7f 3f 13 f4 7f 3f 4f 01 80 3f
       0.9998124 0.99980974 0.999818 1.0000399
000150 b0 02 80 3f f0 05 80 3f b3 f6 7f 3f 21 f3 7f 3f
       1.000082 1.0001812 0.9998581 0.9998036
000160 73 04 80 3f fd f3 7f 3f fb 04 80 3f b2 02 80 3f
       1.0001358 0.9998167 1.000152 1.0000823
000170 1f 06 80 3f 28 fa 7f 3f 0c 03 80 3f c2 05 80 3f
       1.0001868 0.99991083 1.000093 1.0001757
000180 75 f7 7f 3f b3 03 80 3f 6e 06 80 3f f2 f2 7f 3f
       0.99986964 1.0001129 1.0001962 0.9998008
000190 c9 05 80 3f 27 f8 7f 3f 1c 02 80 3f 8b f9 7f 3f
       1.0001765 0.99988025 1.0000644 0.9999015
0001a0 fe f3 7f 3f 89 02 80 3f 6c f3 7f 3f 6f 06 80 3f
       0.9998168 1.0000774 0.9998081 1.0001963
0001b0 68 02 80 3f 33 fb 7f 3f bf fa 7f 3f 33 f5 7f 3f
       1.0000734 0.99992675 0.99991983 0.9998352
0001c0 4e fe 7f 3f 4e f4 7f 3f 0d 06 80 3f 37 06 80 3f
       0.99997413 0.99982154 1.0001847 1.0001897
0001d0 0e 02 80 3f 97 f4 7f 3f 45 fb 7f 3f 3c 06 80 3f
       1.0000627 0.9998259 0.9999278 1.0001903
0001e0 e2 f2 7f 3f 21 01 80 3f 4f fd 7f 3f 09 f4 7f 3f
       0.99979985 1.0000345 0.99995893 0.99981743
0001f0 e8 05 80 3f 9f 01 80 3f 03 f3 7f 3f 00 f4 7f 3f
       1.0001802 1.0000495 0.9998018 0.9998169
000200 4b f3 7f 3f f1 03 80 3f f8 f2 7f 3f 84 03 80 3f
       0.9998061 1.0001203 0.99980116 1.0001073
000210 ae 05 80 3f 8e 06 80 3f 59 fb 7f 3f 8e 06 80 3f
       1.0001733 1.0002 0.999929 1.0002
000220 d9 05 80 3f 53 06 80 3f c2 fc 7f 3f 9a 04 80 3f
       1.0001785 1.000193 0.9999505 1.0001404
000230 81 06 80 3f c6 02 80 3f f6 f9 7f 3f 66 06 80 3f
       1.0001985 1.0000846 0.99990785 1.0001953
000240 8f 06 80 3f 6a 02 80 3f dc 01 80 3f 7e f5 7f 3f
       1.0002002 1.0000737 1.0000567 0.99983966
000250 e2 f5 7f 3f 00 fe 7f 3f db f4 7f 3f 3c 04 80 3f
       0.9998456 0.9999695 0.99982995 1.0001292
000260 d3 05 80 3f e3 f2 7f 3f 21 f3 7f 3f 3d f6 7f 3f
       1.0001777 0.9997999 0.9998036 0.99985105
000270 84 06 80 3f b9 05 80 3f 61 06 80 3f 29 f9 7f 3f
       1.0001988 1.0001746 1.0001947 0.99989563
000280 b7 fc 7f 3f 02 02 80 3f ab 02 80 3f fc f2 7f 3f
       0.9999499 1.0000613 1.0000814 0.9998014
000290 e6 03 80 3f 84 f3 7f 3f 24 06 80 3f 69 f6 7f 3f
       1.000119 0.9998095 1.0001874 0.9998537
0002a0 5d 06 80 3f 8d fd 7f 3f e9 fb 7f 3f 78 fa 7f 3f
       1.0001942 0.9999626 0.9999376 0.9999156
0002b0 21 f5 7f 3f ad 02 80 3f e2 f2 7f 3f 24 f9 7f 3f
       0.9998341 1.0000817 0.99979985 0.99989533
0002c0 e6 f2 7f 3f ed 02 80 3f 12 04 80 3f 6e 05 80 3f
       0.9998001 1.0000893 1.0001242 1.0001657
0002d0 d7 f3 7f 3f ac 03 80 3f b0 03 80 3f fc 00 80 3f
       0.99981445 1.000112 1.0001125 1.00003
0002e0 12 06 80 3f ee f5 7f 3f 48 03 80 3f 78 06 80 3f
       1.0001853 0.99984634 1.0001001 1.0001974
0002f0 38 01 80 3f
       1.0000372

bias f4 [189]
000000 bc 63 3e b9 8f f3 38 39 38 59 51 b9 8c 14 3c b9
       -0.00018156966 0.0001763834 -0.0001996503 -0.00017936731
000010 75 f6 16 b9 9f 95 3d b9 49 a2 96 38 07 ce b7 b8
       -0.00014396927 -0.00018080183 7.182785e-05 -8.7644956e-05
000020 e2 53 50 b9 52 ee 01 39 d8 e7 4c b9 00 e3 fd 37
       -0.00019867675 0.0001239118 -0.00019541325 3.0265655e-05
000030 50 fa 39 b9 48 0c 4d b8 bb 50 94 b8 c2 73 51 b9
       -0.00017736224 -4.8887247e-05 -7.072227e-05 -0.00019974916
000040 56 5a 08 b9 e0 d7 4b b9 c7 8a 63 b8 62 75 51 39
       -0.00013003623 -0.00019440008 -5.4250264e-05 0.00019975522
000050 fc 00 4f b9 67 26 07 39 cc 33 1e 38 a2 41 4c 39
       -0.00019741425 0.00012888909 3.7718375e-05 0.00019479406
000060 a6 4f dd 38 b2 06 4d 38 be 18 4c 39 0e 4b c4 b8
       0.00010552937 4.8882044e-05 0.00019464173 -9.359988e-05
000070 7c da 39 39 5d d4 51 39 66 a5 3f b9 7c fd 42 b9
       0.00017724367 0.00020010905 -0.00018276795 -0.00018595712
000080 ad 2b 1e b9 c0 cc 38 b9 25 99 b5 b8 82 e2 40 39
       -0.00015084325 -0.00017623883 -8.659278e-05 0.00018394928
000090 1a 6e 4f b9 bb fd f3 38 6c 3b 4a b9 43 72 9f 38
       -0.00019782074 0.00011634404 -0.00019286358 7.602994e-05
0000a0 08 f7 0c b9 f4 9b 3c b9 6e ac 2b 39 8a 7d 41 b9
       -0.00013443467 -0.00017987174 0.00016372066 -0.00018452681
0000b0 35 5a 2b b9 d6 ee 4c 39 99 4d f1 38 22 dc 4b b9
       -0.00016341436 0.0001954393 0.00011506229 -0.00019441594
0000c0 e8 97 51 39 9a a9 18 b9 08 53 2b 39 f6 23 8f 38
       0.00019988383 -0.00014559031 0.00016338762 6.8254696e-05
0000d0 82 df 48 39 7a 3b 46 b8 2c e0 29 b9 e7 61 21 b9
       0.0001915675 -4.726227e-05 -0.00016200606 -0.00015390628
0000e0 6a ed 3f b9 66 af 3a b9 58 5c 3f b9 dc 9e 37 b9
       -0.00018303623 -0.00017803683 -0.0001824958 -0.0001751142
0000f0 ba 96 51 b9 66 d3 41 b9 24 34 4a b9 3e 6f 44 b9
       -0.00019987943 -0.00018484666 -0.00019283645 -0.00018733458
000100 54 7c 4a 39 24 8e ba 38 66 cd 51 b9 04 ce 51 39
       0.00019310537 8.895647e-05 -0.0002000831 0.0002000854
000110 18 6f 35 b9 1d be 02 39 1a 82 c2 38 fa 38 0e b9
       -0.00017302891 0.00012468589 9.274874e-05 -0.000135634
000120 ea c5 3f b9 b8 92 4a b9 5c 61 4c b9 7e 37 9b 38
       -0.00018288908 -0.00019318878 -0.00019491225 7.401312e-05
000130 bb bb 3f b9 c4 54 dd 37 b6 ec 32 b9 58 6e 3d 39
       -0.00018285114 2.6384725e-05 -0.00017063585 0.00018065551
000140 24 ea 50 b9 e2 c3 51 b9 7a 45 51 b9 8a 98 47 b8
       -0.0001992365 -0.00020004765 -0.00019957675 -4.758736e-05
000150 4e b0 4e 39 76 47 40 b9 24 34 50 b9 63 7a 40 b9
       0.0001971137 -0.00018337168 -0.0001985585 -0.0001835614
000160 16 bc 3c b9 bc cd 4b 39 9e ac 51 b9 a4 c6 36 b9
       -0.00017999145 0.0001943623 -0.00019996098 -0.00017430872
000170 9c fe 11 38 30 a4 50 39 9c d6 df 37 ce 7c 26 b9
       3.4807817e-05 0.0001989759 2.6683607e-05 -0.00015877487
000180 62 76 48 b9 3e 9c 47 b9 c4 e2 97 38 b3 dc 3c b9
       -0.00019117587 -0.00019036324 7.2424795e-05 -0.00018011294
000190 32 bb 51 39 3c 45 44 b9 10 fc 03 38 7c 10 41 b9
       0.00020001529 -0.00018717808 3.1467585e-05 -0.00018412055
0001a0 76 ff 48 38 75 d0 f2 38 9c e9 36 39 d4 b3 df b8
       4.7921632e-05 0.000115782874 0.00017443899 -0.00010666964
0001b0 86 bb 5f b8 fa 1a 4f b9 20 52 1c 39 e2 ca 4f b9
       -5.3341988e-05 -0.00019751108 0.00014907913 -0.00019816638
0001c0 9e be a4 38 c0 26 ef 37 5c e5 38 39 cf 99 51 39
       7.8556346e-05 2.8509065e-05 0.0001763305 0.00019989091
0001d0 cf ec 4d 39 c4 14 1e 39 f5 f9 49 b9 e0 95 ed b8
       0.00019638542 0.0001507579 -0.0001926197 -0.00011328957
0001e0 f6 45 3f 39 83 7f 51 b9 ac 9d 21 39 75 2b 51 b9
       0.00018241242 -0.00019979295 0.00015412894 -0.00019947982
0001f0 e9 10 50 39 e6 28 3f b9 dd 47 52 38 cd c2 39 b9
       0.00019842725 -0.00018230415 5.013483e-05 -0.00017715544
000200 08 0f 4e 39 e9 2a 08 39 d0 f7 4e 39 22 cf b6 b8
       0.0001965129 0.00012985956 0.00019738008 -8.717018e-05
000210 d3 d7 4a b9 da 3e 4c b9 9c fc 2b b9 38 b4 51 39
       -0.00019344622 -0.0001947837 -0.00016401935 0.0001999893
000220 96 ac 03 b9 f1 12 70 b8 c8 34 41 b9 62 b5 44 b9
       -0.00012557427 -5.72381e-05 -0.00018425577 -0.00018759587
000230 dc 53 44 b9 dc bb 50 b9 dc b1 36 39 5a 04 15 b8
       -0.00018723257 -0.00019906409 0.0001742313 -3.552842e-05
000240 dc 18 e8 37 b8 90 d0 38 5a d3 14 b9 88 e6 d1 b7
       2.7668131e-05 9.945169e-05 -0.00014193114 -2.5022091e-05
000250 20 b0 2a b9 d8 47 46 39 f6 44 51 39 fe ec 2e b9
       -0.00016278075 0.00018909515 0.00019957483 -0.0001668222
000260 32 58 51 b9 d1 f2 50 b9 f6 f4 50 b9 36 6a 97 b8
       -0.00019964649 -0.00019926882 -0.00019927681 -7.2200244e-05
000270 a0 06 69 b8 94 6a 4b b9 e2 e3 84 38 20 f5 48 b9
       -5.55577e-05 -0.00019399292 6.336697e-05 -0.00019164803
000280 76 3d 4c b9 56 e8 3e b9 05 26 2a b9 d4 f7 4c 39
       -0.00019477852 -0.00018206364 -0.00016226627 0.00019547279
000290 a2 3d 0d 38 3a 4f 3c 39 2b 43 fd b8 54 f8 7d b8
       3.367442e-05 0.00017958591 -0.00012076491 -6.0551174e-05
0002a0 d4 bf 43 b9 3e ac 27 b9 10 73 51 39 62 d0 51 b9
       -0.0001866811 -0.00015990526 0.00019974657 -0.00020009422
0002b0 ea 2b 2d 39 44 94 2e b9 bc ea 49 b9 a6 8f 50 b9
       0.00016514925 -0.00016649166 -0.00019256299 -0.00019889939
0002c0 03 b2 4c b9 54 5c 3e b9 cd 28 38 39 ef 4a 09 b9
       -0.0001952127 -0.00018154207 0.00017562807 -0.00013093253
0002d0 87 2f 43 b9 aa 3b 35 38 e2 8d 4f 39 78 15 51 39
       -0.00018614354 4.320933e-05 0.00019793914 0.00019939791
0002e0 92 f5 15 39 b6 ac 16 39 3c 92 44 39 c4 cd 51 b9
       0.0001430123 0.00014369455 0.00018746493 -0.00020008447
0002f0 39 d1 08 39
       0.00013047912
